model_enhanced_full.pth (torch, 6640 bytes, 3 tensors)

layers.0.weight f4 [53, 19]
-0.42363557 0.34974802 -0.5293114 0.5492554 -1.4556572 -1.105138 0.29504853 0.70438117
1.1978981 1.6412505 1.9721965 -0.2963126 0.6669839 0.0695183 -1.0779351 0.9894507
-2.9041157 0.47537905 -0.29086718 -0.36424997 -0.2185765 -0.2723441 -1.5265137 0.943108
-0.31792697 -1.4572926 -1.4747494 -0.50657076 -4.1712546 -0.38658214 1.2179289 -2.3806167
5.541184 -0.45877844 -0.36922848 0.9839478 1.306184 0.92972374 -0.25143307 -0.13765985
-0.369801 -1.3554946 0.7765815 0.15200874 -1.3490108 -1.4755775 -0.54795617 -3.6529882
-0.43479538 0.96659625 -1.4080487 4.6260076 -0.8864153 -0.24576367 0.9725718 1.3002826
1.2605753 0.4745696 -0.09609247 -0.32986632 -1.6353823 2.3680205 0.83216757 -2.3182135
-3.156785 -2.5718873 0.1658788 -0.089648694 -0.90169173 0.0676594 -0.3966951 -3.1797307
-0.8560928 -0.54469615 -0.6322664 -0.0483837 -0.9121107 0.48884192 -1.3101126 1.4398534
-1.8757478 -0.79852 2.1551049 1.6342759 1.9076225 -0.33140144 -0.014689886 0.5535235
-0.055260237 0.73910856 2.093716 0.43407574 0.7870947 0.4628007 -0.22789152 -1.0074375
1.4082055 -1.3940817 -0.46312356 -1.558193 -0.4505402 0.22492671 0.22789438 1.0419134
-0.10264374 -0.09513583 0.41535282 -0.5369491 0.63450515 1.4950536 0.6647203 -0.23294093
0.5090337 -0.48853305 0.87034845 0.102080636 -0.9868825 0.43471932 0.30056134 0.09980463
-0.8235004 -0.5541778 -0.982077 -4.27296 -3.0134544 1.4185174 -2.5881302 -0.73578686
1.0486555 1.0570519 -0.053277373 -0.2400159 1.5249058 -0.06933773 -0.04151886 -0.14408813
0.1711936 1.4329869 0.6719066 -0.5906008 -1.4192272 -1.6228391 -0.04817878 0.13499698
-0.8261157 2.1933446 -0.16431542 0.36182067 -0.09473285 0.65768915 -0.12856095 0.026194764
-0.21377999 0.011705412 -0.43813863 -0.31922057 0.6625186 0.21113223 -0.5393802 -0.9802354
-0.13224411 -0.08773224 0.3381219 -0.6244932 1.8981049 -0.16824853 0.007074004 0.1848636
-0.100736625 -0.0652169 0.12368099 -1.1841707 -0.29674596 0.3042829 1.8176134 -2.5713358
-1.1471344 1.1398385 2.919883 -0.0819666 -0.28146166 0.6768712 1.6857508 -3.312892
-0.5437346 -0.0019652634 0.95730627 2.4786894 0.0347588 -1.4177374 5.9013653 -1.0730214
0.39983764 0.38467455 1.7022014 0.549287 -2.6447232 -0.39518055 -0.81291395 -0.1987632
0.20401388 1.2175951 -1.2456783 -1.1249372 -2.4739473 -0.79751545 -0.006457214 -0.0067430823
-0.74703413 -3.9374688 0.7097137 -0.53749865 -0.08707406 -2.090681 -0.47715643 0.37097976
1.2264727 1.0481596 0.10964487 -0.21305683 -1.2292985 1.0998112 0.6450917 1.1843022
-0.7506286 -0.24993509 0.5888257 1.6344602 -1.0758765 -0.06440457 0.6604228 -0.47078463
-1.8155836 -0.7512988 2.2325447 1.28514 2.543689 -0.10071105 -0.53816634 1.731537
-0.1708072 -0.73589474 0.34888053 0.22985527 -0.7193633 1.3794734 0.7143671 -0.36049974
0.1919059 -0.2322694 -1.9025799 -0.84065145 2.107883 0.58936363 -0.037878513 0.13163583
00000000: c3e6 d8be 2c12 b33e f480 07bf 009c 0c3f
00000010: fa52 babf 2975 8dbf 9a10 973e 5352 343f
00000020: ba54 993f 7f14 d23f ef70 fc3f 49b6 97be
00000030: 75bf 2a3f 9c5f 8e3d c7f9 89bf a44c 7d3f
00000040: 08dd 39c0 e264 f33e 8bec 94be f97e babe
00000050: 85d2 5fbe b070 8bbe cd64 c3bf 876f 713f
00000060: 53c7 a2be 9088 babf 97c4 bcbf 9fae 01bf
00000070: eb7a 85c0 18ee c5be 18e5 9b3f 065c 18c0
00000080: 6151 b140 02e5 eabe 840b bdbe 01e4 7b3f
00000090: 0a31 a73f 6002 6e3f d6bb 80be b4f6 0cbe
000000a0: 8f56 bdbe d980 adbf 0cce 463f 2ea8 1b3e
000000b0: 63ac acbf b9df bcbf db46 0cbf 8fca 69c0
000000c0: 809d debe da72 773f f13a b4bf 4108 9440
000000d0: 1dec 62bf 79a9 7bbe 77fa 783f a96f a63f
000000e0: 885a a13f c9fa f23e 21cc c4bd 3de4 a8be
000000f0: 3554 d1bf a68d 1740 ef08 553f 9c5d 14c0
00000100: c408 4ac0 cd99 24c0 22dc 293e bc99 b7bd
00000110: 45d5 66bf 0391 8a3d 9f1b cbbe b580 4bc0
00000120: e628 5bbf 3571 0bbf 36dc 21bf fd2d 46bd
00000130: 1680 69bf 7d49 fa3e c5b1 a7bf 1e4d b83f
00000140: 8118 f0bf cf6b 4cbf 3ded 0940 f42f d13f
00000150: f92c f43f 73ad a9be d9ad 70bc b7b3 0d3f
00000160: 8f58 62bd 3836 3d3f 71ff 0540 2d3f de3e
00000170: 0a7f 493f 37f4 ec3e 655c 69be b6f3 80bf
00000180: 1440 b43f 4571 b2bf 881e edbe de72 c7bf
00000190: 35ad e6be 3053 663e 255d 693e 6b5d 853f
000001a0: e236 d2bd 93d6 c2bd 20a9 d43e 7f75 09bf
000001b0: ee6e 223f eb5d bf3f 1c2b 2a3f 1188 6ebe
000001c0: 0850 023f 0121 fabe 28cf 5e3f a70f d13d
000001d0: 55a4 7cbf 8893 de3e 2de3 993e 5f66 cc3d
000001e0: ecd0 52bf 99de 0dbf 6669 7bbf 17bc 88c0
000001f0: 70dc 40c0 fa91 b53f eda3 25c0 875c 3cbf
00000200: 583a 863f 7a4d 873f 6039 5abd bac6 75be
00000210: 1d30 c33f f100 8ebd ae0f 2abd d78b 13be
00000220: 604d 2f3e 1d6c b73f 1202 2c3f 9d31 17bf
00000230: 3da9 b5bf 31b9 cfbf 1d57 45bd a63c 0a3e
00000240: 527c 53bf c25f 0c40 4d42 28be 8f40 b93e
00000250: 4c03 c2bd 515e 283f 7ba5 03be 6796 d63c
00000260: 24e9 5abe 0ec8 3f3c b553 e0be e170 a3be
00000270: d29a 293f 0c33 583e d214 0abf b5f0 7abf
00000280: 006b 07be f6ac b3bd 501e ad3e c9de 1fbf
00000290: 1af5 f23f 5849 2cbe 0ccd e73b e24c 3d3e
000002a0: 014f cebd 7090 85bd 754c fd3d e892 97bf
000002b0: 16ef 97be f8ca 9b3e 8ea7 e83f c490 24c0
000002c0: 4dd5 92bf 3ae6 913f 5ddf 3a40 1bde a7bd
000002d0: be1b 90be 6e47 2d3f afc6 d73f 6c06 54c0
000002e0: 3132 0bbf a6cb 00bb 0612 753f d9a2 1e40
000002f0: 3e5f 0e3d 6b78 b5bf fcd7 bc40 c458 89bf
00000300: 85b7 cc3e 10f4 c43e bce1 d93f 139e 0c3f
00000310: 2543 29c0 1b55 cabe 211b 50bf 9588 4bbe
00000320: 04e9 503e 28da 9b3f 6372 9fbf f1fd 8fbf
00000330: 2755 1ec0 f929 4cbf 0997 d3bb 13f5 dcbb
00000340: a13d 3fbf 7dff 7bc0 ccaf 353f 8399 09bf
00000350: e353 b2bd b8cd 05c0 d94d f4be 0ff1 bd3e
00000360: 0ffd 9c3f 182a 863f 7d8d e03d 922b 5abe
00000370: a759 9dbf 9dc6 8c3f bb24 253f 3797 973f
00000380: 3229 40bf fcee 7fbe 48bd 163f fe35 d13f
00000390: 52b6 89bf 8be6 83bd 7811 293f af0a f1be
000003a0: 0b65 e8bf 1e55 40bf 03e2 0e40 787f a43f
000003b0: cdcb 2240 9841 cebd 45c5 09bf 01a3 dd3f
000003c0: 15e8 2ebe 9963 3cbf 78a0 b23e 2e5f 6b3e
000003d0: 3128 38bf 9692 b03f c3e0 363f 6c93 b8be
000003e0: fb82 443e 08d8 6dbe bd87 f3bf ef34 57bf
000003f0: 8ee7 0640 89e0 163f 8026 1bbd 8bcb 063e

layers.0.bias f4 [53]
-0.3259447 1.6785299 1.4166945 -1.103597 1.0317578 0.8010613 0.20023109 0.043136794
0.118865356 0.6639146 -0.57464546 0.11139842 1.0807538 0.14446822 -0.205444 1.2456305
-1.2839588 -0.22675866 -0.58836883 -0.48213828 0.022989208 0.29073134 -0.30324504 0.05177133
-0.22889662 -1.3714709 0.19610617 0.1518019 -0.030324927 -1.0122365 -0.117491566 -0.9068131
-0.15364821 1.0392067 -0.32374465 0.45476604 0.899986 -0.59752774 1.3397104 -0.7215436
0.14216651 -0.27269137 -0.013783743 0.63453835 -0.6962341 1.1288416 0.12661614 -0.88216364
-0.3020043 0.7595161 -1.2204933 1.4999028 0.7623282
00000000: 39e2 a6be 11da d63f 3f56 b53f ab42 8dbf
00000010: a410 843f 5a12 4d3f 6109 4d3e 35b0 303d
00000020: ae6f f33d 4ff6 293f f71b 13bf db24 e43d
00000030: 2456 8a3f 7aef 133e e95f 52be d270 9f3f
00000040: c358 a4bf 6c33 68be 579f 16bf d4da f6be
00000050: dd53 bc3c bdda 943e ef42 9bbe 2d0e 543d
00000060: e063 6abe 5c8c afbf 0ed0 483e f571 1b3e
00000070: fb6b f8bc f790 81bf 6b9f f0bd e724 68bf
00000080: f555 1dbe ba04 853f dcc1 a5be 18d7 e83e
00000090: 7c65 663f 94f7 18bf a17b ab3f 15b7 38bf
000000a0: 1994 113e 349e 8bbe 35d5 61bc 1b71 223f
000000b0: 663c 32bf e27d 903f a9a7 013e 7ad5 61bf
000000c0: 4fa0 9abe a66f 423f 2039 9cbf d1fc bf3f
000000d0: f127 433f

out.weight f4 [1, 53]
-0.10001637 0.10941457 0.142329 0.07905987 -0.07827565 -0.11483802 0.1334447 0.030161737
0.044897214 -0.120585404 0.080275916 -0.0770373 -0.1637174 -0.14479133 -0.1745885 -0.041170303
0.09069054 0.013844078 0.11296463 0.10493034 -0.052952748 -0.09726247 0.12290538 0.077754974
0.13492067 0.055873003 -0.09733112 -0.12579203 -0.087034516 0.0423104 -0.14080644 0.10734461
0.12173969 -0.09197013 0.079294056 -0.17087017 -0.06396911 0.11746065 -0.07303047 0.13585354
0.1005079 -0.08889332 -0.029230386 -0.15717 0.045781456 -0.14102975 -0.10598127 0.075483166
-0.12238064 0.12567589 0.06701213 -0.17071113 -0.061602753
00000000: 62d5 ccbd bf14 e03d b2be 113e 24ea a13d
00000010: fc4e a0bd 3230 ebbd baa5 083e bf15 f73c
00000020: 24e6 373d 7bf5 f6bd b367 a43d bbc5 9dbd
00000030: 89a5 27be 2e44 14be 54c7 32be 31a2 28bd
00000040: f6bb b93d 46d2 623c 005a e73d b8e5 d63d
00000050: fbe4 58bd 8c31 c7bd d1b5 fb3d 003e 9f3d
00000060: a528 0a3e 17db 643d 8a55 c7bd a0cf 00be
00000070: 273f b2bd ac4d 2d3d 902f 10be 7ed7 db3d
00000080: a952 f93d d65a bcbd ec64 a23d 97f8 2ebe
00000090: 3d02 83bd 368f f03d 0091 95bd 311d 0b3e
000000a0: 16d7 cd3d b30d b6bd 9074 efbc 2cf1 20be
000000b0: 5685 3b3d 1a6a 10be b50c d9bd eb96 9a3d
000000c0: b3a2 fabd 2eb1 003e a83d 893d e6ce 2ebe
000000d0: 2b53 7cbd
