model_enhanced.pth (torch, 9416 bytes, 3 tensors)

layers.0.weight f4 [87, 19]
00000000: eade 91be 5537 c43c f26b 70be 50ad 3a3e
00000010: dc90 40bf 7f7e 0ebf 55b1 313e 3382 d03e
00000020: 51c6 a63f ecb3 d4bc 8bf1 2bbd 573d 503e
00000030: 70be 533e 16d0 f83e addd 30be e2c1 cdbe
00000040: da57 cdbd efb1 403e 3f74 cbbe 88c8 943f
00000050: d76a d23f cedf 623f 6f4b 34bf 28eb 213f
00000060: a96d 153f f6ca 35bf a66d dfbf e872 2a3e
00000070: 8d3e 173c 1bb3 a5be 831b 8fbe 102e c6be
00000080: 7609 bcbf f19b 5f3f ddef 06bc a848 10bf
00000090: 60cd 29be 49cd 6abf 2ae3 0f3f 31e1 2ebd
000000a0: d4c5 9fbe ac30 e8bf 5205 f63f abee 3a3f
000000b0: 06cd 29c0 1295 05c0 bf6c f9bf 91ea babd
000000c0: db09 07bd 0918 6cbf df76 dcbe b351 f8be
000000d0: 6ed1 a5bf 3c35 1ebf 90e7 4abf ac04 0abf
000000e0: 6c1a af3e f194 c8bf 5272 86bf b048 a83e
000000f0: 81fa 033d 24a7 b2bf 0a70 3bbf 4509 363d
00000100: f705 a83f a34f 803f 79cf 873d c61b 543e
00000110: 14de bb3c 1b89 ec3d a452 db3f 6ec6 a1bf
00000120: 3379 933e 1804 b63d a63f c63e e42f cabe
00000130: aeeb 073f 7fc9 213e ad72 41bf b34a 773e
00000140: c4c1 ea3f 0abc 3f3f 5789 2bc0 b344 09c0
00000150: ef4b 16c0 2e62 4c3d 0935 b73e b228 8fbf
00000160: c30f 453d b3c7 8b3c 932e 88be 06c3 babe
00000170: a264 b7be be24 4ebf db53 21bf b21d 31bf
00000180: 28cc 563f 004c 753e f583 1cbf 4e13 cd3f
00000190: 31d2 903e 3839 80bf 3fd0 2f3f 5d9e 373e
000001a0: 4ae1 14bf 2522 b93e 3583 ec3e 8d1f f23f
000001b0: cf29 4bbf 2402 ecbd 8423 ad3f 025f e53e
000001c0: e744 5dbe 8cde 2c3e 7773 ba3e f34d 8e3d
000001d0: 26c6 753f d0d9 dcbf 263a 043f 3939 923f
000001e0: 9a18 1dbd 1661 613e 42c8 82bf d167 693e
000001f0: 15fc 72be 3269 5fbf f460 2a3f 5200 64be
00000200: 733e c73f 6292 ec3d 5e2c 2abf 0837 c23d
00000210: 25ed 3fbf e562 a7bf 02a6 42bf c679 2bbf
00000220: 7b75 bd3e 433e 64be 5cc2 72bf 42ec 5e3e
00000230: 5594 903f 40de 6dbe f170 34bd d6f4 febe
00000240: ffce 373f d4ae 59be 7b4d 233d 8d2a 45bf
00000250: 3baf b6be 68cb d93d 4708 e73e df3b 933e
00000260: dd5a b8bd 8283 3ebd 8656 e63c cf9b afbc
00000270: b353 2e3d f8e8 e83e be17 68bf b110 eebe
00000280: e516 313d 97a6 a2bd 8e5c 7c3e c79d 08bf
00000290: 5ac8 903f e453 19be 5238 2abe 3ffb 713e
000002a0: 929d 76be 85fc 32be 05f0 08bf 6e54 f93d
000002b0: 4d0f ab3f 8e57 0fc0 2488 a7bf 2349 19bf
000002c0: 2f71 f63f 1bc6 3abe 91b9 383f 74a8 ac3e
000002d0: 5fdc 043f 39d9 b73e acde db3e 1f56 e5bf
000002e0: f12a af3f 557f c8bf a174 5abf 576d 95bc
000002f0: 7521 303f 2bf5 a83e ccd0 7c3e ef03 883e
00000300: ebeb 703f cf9d a03f 674d 4bbf 60be cabe
00000310: 2c17 b43f 8bf1 ac3f 4aef 3c3f a485 7340
00000320: cf7f f83e 5bcc 63bf 94d4 d53f edac 7ec0
00000330: f735 2b3f 7424 943e d9d1 55bf 6d85 9abf
00000340: fecc a6bf c1dc 0b40 e4f1 46bf 9d1a 86bd
00000350: 9283 80bf 79b0 33bf f12e c8bc 9591 303e
00000360: c097 a8bf 9130 83c0 08b1 c43f b21e 563d
00000370: b242 ea3f 0eaf 69bf d34c 2ec0 5d2e 42bf
00000380: dde6 1f3f 5b7b e93e 8ec8 52bf 2e70 0e3f
00000390: f847 273f 1c84 cdbf ed3a 6e3f 99d5 013e
000003a0: 017c b13f a3a2 c5bf b515 05be 9008 c9be
000003b0: ea2b 93bf 7d5c 39be f383 5abf 286a 73bf
000003c0: 0a5d 363d ac31 36bf 8348 ed3f e183 563e
000003d0: b3d4 ee3d c9fd 33bf 1472 903f 03eb c93f
000003e0: 24fb 683f 2b51 da3e d1e8 87bd 4ba3 9a3f
000003f0: 4d6a 8b3f aa91 f5bd 2d2e acbf 18db 92bf
-0.28490382 0.023952166 -0.23478678 0.18230176 -0.7522104 -0.5566177 0.17352803 0.40724334
1.3029271 -0.0259647 -0.0419784 0.203359 0.20678115 0.48596257 -0.17272063 -0.40186983
-0.10026522 0.18817876 -0.39737126 1.1623697 1.6438855 0.8862275 -0.704276 0.63249445
0.58370453 -0.7101282 -1.7455337 0.16645396 0.009231222 -0.3236321 -0.27950677 -0.38707018
-1.4690387 0.8734732 -0.008235899 -0.56360865 -0.1658225 -0.9171949 0.56206 -0.042695228
-0.31205618 -1.8139853 1.9220374 0.7302043 -2.6531386 -2.0872235 -1.9486312 -0.09126771
-0.032968383 -0.92224175 -0.4305944 -0.48499832 -1.2954538 -0.6179998 -0.79259586 -0.5391338
0.34199846 -1.5670453 -1.0503638 0.32867956 0.03222132 -1.3957257 -0.73217833 0.044442434
1.312682 1.0024303 0.06631369 0.2071372 0.022933044 0.11549588 1.7134595 -1.2638681
0.28803405 0.088874996 0.38720435 -0.39489663 0.53093994 0.15799521 -0.75565606 0.24149589
1.8340383 0.748963 -2.6802576 -2.144818 -2.3483846 0.04989832 0.3578265 -1.1184294
0.048110735 0.017062997 -0.26598033 -0.36476916 -0.35818964 -0.80524814 -0.6301858 -0.69185936
0.8390527 0.23954773 -0.6113885 1.6021516 0.28285363 -1.0017462 0.68677133 0.17931505
-0.58156264 0.36158863 0.46193853 1.8915879 -0.7936067 -0.11523846 1.3526464 0.44799048
-0.21608315 0.1688177 0.36416218 0.069484614 0.96005476 -1.7253971 0.5165123 1.1423713
-0.03835354 0.22009692 -1.0217364 0.22793509 -0.23728974 -0.8726989 0.6655419 -0.22265747
1.5565933 0.11551358 -0.6647395 0.09483153 -0.7497123 -1.3077055 -0.7603456 -0.66982687
0.37003693 -0.22289376 -0.9482782 0.21769813 1.1295267 -0.23229313 -0.04405302 -0.4979617
0.71800226 -0.21258098 0.039868813 -0.7701805 -0.35680565 0.106345 0.45123503 0.28756616
-0.09001706 -0.046512134 0.02811743 -0.0214366 0.04256029 0.4549024 -0.9066123 -0.4649711
0.043234725 -0.07941931 0.24644682 -0.5336575 1.1311142 -0.14973408 -0.16623047 0.23630999
-0.24083546 -0.17479141 -0.5349124 0.12174307 1.3364044 -2.239719 -1.3088422 -0.5987722
1.9253291 -0.18239634 0.7215815 0.3372227 0.5189876 0.35907915 0.42943323 -1.7916907
1.368498 -1.5663859 -0.8533421 -0.018240614 0.6880105 0.32999548 0.24689025 0.265655
0.9410998 1.2548159 -0.7941498 -0.3959837 1.4069571 1.3511213 0.73802626 3.8050318
0.4853501 -0.88983697 1.6705499 -3.9793046 0.6687922 0.28934062 -0.8352333 -1.2071968
-1.3031309 2.1853487 -0.77712846 -0.06548045 -1.0040152 -0.7019115 -0.024436446 0.17243035
-1.317131 -4.0996785 1.5366526 0.052275367 1.8301604 -0.9128274 -2.723439 -0.75851995
0.62461644 0.45601925 -0.8233727 0.5563992 0.6534419 -1.6055942 0.93058664 0.12679137
1.3865968 -1.5440258 -0.12996562 -0.39264345 -1.1497777 -0.18101688 -0.8535759 -0.95083857
0.044522323 -0.71169543 1.8537754 0.20948745 0.11661663 -0.7030912 1.1284814 1.5774845
0.9100821 0.4264005 -0.06636203 1.2081083 1.0891815 -0.11990674 -1.3451592 -1.1473112

layers.0.bias f4 [87]
00000000: 2313 b4bd ad1b 3abf 3fbf 6cbf b7ca 003f
00000010: d57d 4ebf 44a9 d63e 4b5d b8be eb52 c53e
00000020: 3b89 293d 2871 a3bd e1b0 c1bf 18da c7be
00000030: e037 ecbe a6e5 04bf a760 7b3e 0d3e debe
00000040: 32e6 503e e2db 413e 1b9e c9bd 3464 53bf
00000050: 0b89 94bd 3ffa 393d 8216 6a3e c207 6fbf
00000060: 1e8a 303e 6f85 ef3d 6dd7 be3d 16b6 0d3f
00000070: 52e0 9ebe a3aa 8cbf 7af2 f93e 347c 543f
00000080: 5b04 d5be dfba 41bf 27e8 753f b954 36be
00000090: b2f1 5bbf 064e 623c 4cae d3be 26a0 f03e
000000a0: be5e c6be 9813 72bf 796b 093d 17fa 57bf
000000b0: da9a debd dc75 a1bf c4e0 9dbf 4d86 303f
000000c0: 7fcc 233f dd28 163e 5ddc 273e 0355 123f
000000d0: 7c17 eb3d 8762 2c3f 0391 b7bb 804f 71bf
000000e0: 3e9f 91bf 7ced c43e 0cc2 6a3f 0e0c 7bbf
000000f0: 7b31 22bf fc55 3e3f 1b33 243e 09e6 173f
00000100: 2647 07be 50e9 1a3f 00a0 91be 7427 e2bd
00000110: e786 0cbd 49b3 0b3d 3fea 563f 8206 73bf
00000120: a640 a03d b3a2 5b3f 5d68 e0bd ca58 f5be
00000130: 16b4 273d 5d2a 9e3d c917 80be 6c82 13bf
00000140: aab1 0ebe 5a95 943e b296 bf3e 5008 02be
00000150: f8a8 2ebf 9571 91be c28f f9bc
-0.087927125 -0.7269848 -0.9247932 0.5030932 -0.80660754 0.41926014 -0.36008677 0.38539824
0.04139064 -0.07980567 -1.5132104 -0.3903358 -0.4613638 -0.51912916 0.24548589 -0.43406716
0.20400313 0.18931535 -0.09844609 -0.8257477 -0.07252701 0.04540467 0.22860149 -0.9337121
0.17240188 0.11695372 0.09318433 0.55355966 -0.31030518 -1.0989574 0.48817807 0.8300202
-0.41604885 -0.7567577 0.9605736 -0.17805757 -0.8591567 0.013812548 -0.41343915 0.46997184
-0.38744158 -0.9456115 0.03354976 -0.8436598 -0.10869379 -1.2614093 -1.2334218 0.68954927
0.6398391 0.14664026 0.16392656 0.5716097 0.11479089 0.6733784 -0.0056020035 -0.9426193
-1.1376722 0.38462436 0.9170234 -0.9806527 -0.6335675 0.7434995 0.1603512 0.5933538
-0.13210735 0.60512257 -0.28442383 -0.11042681 -0.03430834 0.034106527 0.8395118 -0.94931805
0.07824831 0.85795134 -0.10957406 -0.47919303 0.040943228 0.07722924 -0.25018147 -0.57620883
-0.13934961 0.29020196 0.3741966 -0.12698483 -0.68226576 -0.2840697 -0.030464057

out.weight f4 [1, 87]
00000000: af26 3abc eb5d b63d cb2e 043e 51bc 00bd
00000010: 41bf 413d 5bd0 d63d 7e1f a23d 2103 2bbd
00000020: 0264 9d3c d377 f1bd 8916 efbd a9a6 c33d
00000030: f784 7a3d c320 d93d 1fa9 d43d c49a 1dbe
00000040: 7088 2fbe fdfc e1bd 4a56 d23c ac82 de3d
00000050: 26ee 133e 94d9 d13b 268b bc3d ffd7 9e3d
00000060: a63f 57bd a4b2 103e 227e 9cbd ebec 01be
00000070: 0c4d c93d 7040 ba3d 3a45 76bd 78a1 c8bd
00000080: 5c8c d93d 3c48 97bd 5af0 11be aa1d 7a3d
00000090: 7376 aa3d eb50 3e3d 93f8 09be 827f a7bd
000000a0: 49b7 c23b ba3e ab3d c320 493c 2275 dd3d
000000b0: a29b 7fbd 99f2 5fbe 4005 d13d 9ef4 cfbc
000000c0: 21c3 f63d d7b1 0cbd eac2 8d3d f235 10be
000000d0: 8e56 8fbc b2f6 49bd bda1 2fbd 24d3 0e3e
000000e0: 386c 1a3e 256f d9bd fb5d 12be f5fe a43d
000000f0: 0ef7 b83d 062f d9bd b9ed 5c3d 757e bfbd
00000100: c093 383c 2aaf a6bd f0bd e33c a8fa 34be
00000110: e1dc 9f3d 6a61 4ebd 5dfe 463d b542 943d
00000120: ffd1 883d e68e 7ebd 92ec bdbd b29a d13b
00000130: 7c12 243b 90cb ebbb e200 ab3d 4fae 273d
00000140: 912e 133c 8baf 8abd b58a 70bd af8b 85bc
00000150: 2be0 c4bb ada9 1e3e 51f8 d83b
-0.011361762 0.08904632 0.12908475 -0.031429593 0.047301535 0.104889594 0.07916163 -0.04175103
0.019212727 -0.11790433 -0.1167422 0.09553272 0.06116196 0.10601952 0.1038382 -0.1539107
-0.1714189 -0.11034582 0.025675911 0.108647674 0.14446315 0.006404111 0.09206228 0.07756042
-0.052550934 0.14130646 -0.076412454 -0.12688033 0.09829149 0.09094322 -0.060124613 -0.09796423
0.106224746 -0.073868245 -0.14251843 0.061063446 0.08323374 0.04646389 -0.1347373 -0.08178617
0.0059422594 0.083615735 0.012275877 0.10813357 -0.062404282 -0.21869887 0.102060795 -0.025385197
0.12048937 -0.03434929 0.069219425 -0.14083079 -0.017497327 -0.049307533 -0.042878855 0.13947731
0.15080345 -0.10616902 -0.14293663 0.08056442 0.09031497 -0.10604672 0.053937647 -0.09350292
0.011265695 -0.08138879 0.02780053 -0.17673743 0.07805801 -0.05038587 0.048582423 0.07239286
0.066806786 -0.062147997 -0.09273638 0.006396615 0.0025035432 -0.0071958974 0.08349778 0.040937718
0.00898327 -0.067717634 -0.05872603 -0.016301958 -0.006008168 0.15494414 0.0066213985
